neural_network90_Biases.npz (npz, 1388 bytes, 3 tensors)

arr_1 f8 [20, 1]
0.2571394520095502 -0.10898302200136026 -0.1300913219443132 -0.180464415947602 0.0062623912323404585 -0.21191724770850953 -0.09971094479870257 0.2854469236256843
0.053141561401413406 -0.22771467147691565 -0.266271561406552 0.11195546454882155 -0.24400973303857337 0.010417991300579243 -0.23629817233296174 0.13298840857600502
0.04948652302203782 0.11991263599732166 0.024154006989502874 0.18788222293883594
00000000: bf1c 3908 f974 d03f caa9 50b3 4fe6 bbbf
00000010: 0143 9f1a d5a6 c0bf b518 4b3e 7519 c7bf
00000020: c040 9ad8 97a6 793f 85e5 2eb8 1a20 cbbf
00000030: 50b4 f60e a886 b9bf f9d4 6d2c c344 d23f
00000040: 780d 8ee8 5e35 ab3f c207 681d c125 cdbf
00000050: cf24 06e0 970a d1bf 387e d802 1da9 bc3f
00000060: ea36 a7ff b53b cfbf e072 681f 0756 853f
00000070: 7e27 23bd 043f cebf 1c5f caa0 c305 c13f
00000080: e0de f12b 4c56 a93f 7c53 fc31 98b2 be3f
00000090: 605d 59f8 d3bb 983f 90d3 8251 860c c83f

arr_2 f8 [10, 1]
0.15645104477019994 0.4093759079912403 0.35944974989479345 -0.009517749701728695 -0.15297567675884205 0.36907321800881193 0.18028208100295112 -0.32847386108572196
-0.15598078998757792 -0.12047434109889238
00000000: ea44 5b7c 9606 c43f 81ee 2502 3733 da3f
00000010: 07a0 1686 3901 d73f 807f 9abd 0a7e 83bf
00000020: f49f 61fc b494 c3bf 4d59 4b46 e59e d73f
00000030: 2233 fbb4 7b13 c73f b60e bd3a b705 d5bf
00000040: 9c83 e6b3 2df7 c3bf 5ce2 060b 68d7 bebf

arr_3 f8 [1, 1]
0.4369047328515929
00000000: 602c c444 3ff6 db3f
