neural_network90_Weights.npz (npz, 9540 bytes, 3 tensors)

arr_1 f8 [20, 42]
00000000: 7500 4644 6d30 d03f 6e58 b529 8bfb bcbf
00000010: da7c 5475 f20a ce3f 2831 3a54 df76 c3bf
00000020: 3ba7 58df 0928 d13f a311 dcff 2e29 c9bf
00000030: 99ff fdbd 4bab d2bf 7c41 d186 0850 b9bf
00000040: af20 6d4f ec1d d23f 578e 884f cb28 bfbf
00000050: b26b 427a 116d 853f 535d 640b 8749 ccbf
00000060: b0bf 97f8 aa4e 7ebf 55e6 64e3 c917 bfbf
00000070: 8afa 19b7 b6ec c5bf c3a4 210b 0ec4 d2bf
00000080: cc87 59b5 cfdd c9bf d0a5 9ac1 0fbf b03f
00000090: 1adc d5aa 57e6 acbf 638e 7af6 1649 cfbf
000000a0: c2cb 7b59 6510 cb3f a042 76e5 ee12 913f
000000b0: 141f 34f8 5b9a bebf 07b9 5cc0 6765 d2bf
000000c0: f053 89b8 c682 99bf 0c22 1b0d 3618 d2bf
000000d0: a790 54dd 3437 d2bf c73a f0e8 62ca d23f
000000e0: a259 4f01 bfe5 c0bf 3000 9f8a ec86 b63f
000000f0: 0ecb 650a 50f5 c93f 4ec7 e184 69af c83f
00000100: c153 266e 4dbd d0bf ece8 6821 95cc bcbf
00000110: 7996 af30 f13f c1bf b0d8 7ab3 e957 95bf
00000120: 389b aad9 1afa b1bf c7c0 c2c8 83fc c3bf
00000130: e0c3 e512 3fb8 ad3f fdde 97ce f8a9 c7bf
00000140: 1807 2149 1bb9 b33f 8df6 7754 8fcc d23f
00000150: 930b e2b5 fe82 c4bf 1015 5dbb a435 ab3f
00000160: baad e565 3e6f ca3f 604c 0a6c 21a5 b23f
00000170: ae50 2f9b 0818 bbbf 3121 38c3 77ad d33f
00000180: 58e8 a8e9 4c2e c03f 547d 7f3c 0fef bcbf
00000190: 3860 9f21 74c9 a4bf f8a3 c727 b185 a93f
000001a0: 17c9 669e 2909 d23f dba8 b8e1 d705 cfbf
000001b0: eefe b2d9 7fa5 cb3f e056 5bf3 22d4 8dbf
000001c0: 81c0 1d0a 0233 c4bf 8617 244b c1c9 473f
000001d0: 00a1 e0b7 2729 61bf 30bc 5070 5746 9fbf
000001e0: 9e87 beb9 a6e8 c83f 1cbb 84e7 c045 c6bf
000001f0: e8e0 a925 687e c53f 1a4d 1e54 bdb4 c23f
00000200: f042 3ab4 dc82 ba3f 80bc 4d81 041d 9dbf
00000210: 6228 7c6d 1f02 cbbf 6097 d1a1 4246 8bbf
00000220: 0a3b c494 d90f c6bf f1c2 3117 e9bf d03f
00000230: 048c 0ddf 42d3 c23f b887 4a99 88ee a7bf
00000240: 6fa7 6f9f 0dbe c2bf fc32 ea0c 20bb ccbf
00000250: 15d8 cb22 0e0f d23f 6a88 95a1 c4d4 cb3f
00000260: 00d1 8264 893f c23f d8cf 066c 646c cebf
00000270: 8016 6cb7 b4ba adbf 1e40 0429 1c33 cb3f
00000280: 130c dc6b bbed d2bf 0917 f236 7335 c9bf
00000290: e048 f61d ea15 973f 1f0a 4cbd d191 d33f
000002a0: cf51 9ee0 9b79 d33f 78ec 85c7 f75a ae3f
000002b0: b4ca b531 21b0 c13f 33c8 6b8b 241f 9ebf
000002c0: 957c 652c 2d0a c7bf 3fef 042b fd31 c4bf
000002d0: 02b2 63e2 adf4 b3bf f5ba b546 770f d3bf
000002e0: 297e 12d1 cb4b cdbf 4ecb 856b 6935 c43f
000002f0: 761e 3a86 231b cfbf a8a9 5734 aef1 d0bf
00000300: 88cc 053a c625 af3f 4e16 e364 7073 cf3f
00000310: 53cd c2db 9bf2 d03f 02d7 ae88 baed c73f
00000320: f7ad 8e75 bb80 d23f 8a85 961a c29d cb3f
00000330: afcb 2899 77a4 d13f 22be 429a a1f5 c13f
00000340: 86b2 8b06 879f c2bf 125c d7b5 f7bb c63f
00000350: 6a31 776c 8a21 cf3f 54e9 b7a9 d310 c63f
00000360: 6022 38ba 0ddd b9bf 2a84 5dd3 2e69 b0bf
00000370: ef74 c57c 99b7 d1bf 5472 517f 3fa4 b13f
00000380: c037 1a6e a7b2 9f3f 105c 790a 3ee6 933f
00000390: e4b1 9400 b5b3 b63f 46c6 1932 39c0 c03f
000003a0: 82da a69d 0eba ce3f 5e24 2597 9d84 c03f
000003b0: be93 7d62 521b ce3f 16d9 74b0 cab9 cb3f
000003c0: ce3a 6e5a e479 c73f aaea fdf9 8f7b b3bf
000003d0: 504a 730e 5071 9d3f 0c2e c2bb 24a6 b23f
000003e0: f497 659f d8d9 b63f 46e2 4f35 325e cabf
000003f0: 7726 ecb8 537b d33f 5764 6cd8 65cc 633f
00000400: 566c 6b5c e819 c93f aa81 fff2 0543 cd3f
00000410: 7019 0f46 690d a4bf b4d1 cfc3 398d 923f
00000420: 1ac8 f312 a315 cb3f 0543 43cd 55b7 9c3f
00000430: 6519 ee51 e34a d33f 24f4 cb21 f682 afbf
00000440: 14b0 7cba 42a1 d3bf 435e 9747 1c60 d0bf
00000450: 78c8 b6fe ab94 aa3f 4bec f3da c7f9 d13f
00000460: 970a 77c7 6c3a c7bf 2894 3455 320a a23f
00000470: 77e4 d3bf 8682 cabf 1682 b716 2c62 c5bf
00000480: 74dc cbbc 99b6 d0bf d28a 1b0e 7e1c cbbf
00000490: eeaa b523 ad91 c23f f989 6b7d 9dd7 d33f
000004a0: 6e86 a8f5 f123 bebf 6f51 13f2 2c07 c1bf
000004b0: 188c 202f 3dcc a83f 8021 92aa 89b2 9d3f
000004c0: 43ca d05b 65a6 d3bf 1c8c 04d7 64e7 b83f
000004d0: d1b1 8073 3e56 d3bf c016 31db 4a77 cebf
000004e0: e10d 1324 9c80 d13f e070 ed8b ef46 a33f
000004f0: 8e82 2b27 9e1e c83f 5437 69fb 12a3 c63f
00000500: 20ab b528 0a14 adbf a5a9 eb03 6146 d3bf
00000510: 9005 ac0f 4f43 b93f 98ef d7bc 0a58 c03f
00000520: 0066 cb88 3c51 6cbf 7609 d0f9 2e7c cfbf
00000530: 6ec1 739c a1c8 92bf 007b b40e a6e0 c0bf
00000540: bb43 b743 27c2 ab3f 2b28 a11c 27ef 9d3f
00000550: 1a92 9957 b84d cabf c5ed c468 1da0 cbbf
00000560: 0614 88a4 22e8 c7bf 513e 61ff 567d acbf
00000570: 64eb 92d8 7b93 bd3f 219f 195d a8a9 d2bf
00000580: 88cf cf49 5cfe b13f da05 8cd0 ade9 cebf
00000590: f70a da49 0d38 d23f 2225 c4ed 01cf ce3f
000005a0: 503f 1927 c438 af3f 2cd9 8bac 431c b5bf
000005b0: 74d2 6291 bb66 be3f 83c3 e032 9665 c6bf
000005c0: 7e04 0514 82ad d1bf 14ca 41c3 6aa4 cabf
000005d0: 9c12 da9e dc58 b23f d04b d65d f3a4 a4bf
000005e0: 1f6c b1c1 b762 cdbf 4e0e fff2 d914 ca3f
000005f0: e7bb 7719 c637 d13f 2063 27f3 d331 9d3f
00000600: 90f0 6b6f c7b3 97bf 6823 5d92 8f84 d3bf
00000610: d745 f3ed 7314 d23f 225c 1c15 5495 c1bf
00000620: 7ae5 64c0 bcd3 cd3f d37a 3681 8c32 d03f
00000630: 2019 e840 f911 8b3f b0f6 57e4 57b4 a53f
00000640: 8233 4a6f c8dc b1bf e66f 323d 048d c23f
00000650: a0a9 5b6b 103e b4bf fb4c fe34 d229 d0bf
00000660: 5449 cb89 bb52 d0bf 2a1f da9a 13c3 bebf
00000670: 108a 310c a87e 9c3f 98ea 3fd3 8cbf a93f
00000680: f66e ca6c 48e2 cc3f 13fd f7dd c29f 96bf
00000690: 675b 3c7f 019a c0bf 5d07 38d9 3d07 c5bf
000006a0: 404c 38d3 c724 c1bf 8abe 9809 68a8 cb3f
000006b0: e49a 26e0 d655 d1bf 682e 353a 47c3 c03f
000006c0: 9896 08fd 0963 bc3f b6e4 3ce0 7735 c63f
000006d0: 20b3 1719 dcf7 9a3f fe86 44c9 9df6 c83f
000006e0: 1c07 7885 36a6 c6bf 8568 92eb f9f2 643f
000006f0: 5674 14f4 d5be ce3f 7295 de61 c721 cbbf
00000700: 8077 d785 aded 923f f257 af1d 550d cabf
00000710: 1cef 78f7 2b53 b53f 6fc9 aeb0 456b c1bf
00000720: ea17 d997 26da d2bf b1ec 4e41 af14 cdbf
00000730: a6e1 c3d1 4930 c93f af42 5828 6192 d33f
00000740: 00ac da43 e877 3a3f 300d 5826 6bc0 ab3f
00000750: 5e8e 600b 78a1 c73f 400a dc6d 72d8 c23f
00000760: 8262 a69e cefb c7bf 44b6 f185 d6c3 c13f
00000770: 8023 dd51 19c0 743f b77d 37c8 d766 c7bf
00000780: 6856 5f59 0a1c a1bf 803a 86cc 37c5 72bf
00000790: 745f 10e2 32cb c03f f0b5 35b9 87c3 b5bf
000007a0: e81e 6e44 ddd1 bdbf 4c07 92bb 08ee b03f
000007b0: 6c5e fb4a 9d8a b33f 9d36 9937 7dd6 c4bf
000007c0: be9f 17ab a5ff cc3f 4279 c527 f501 c73f
000007d0: 181e f74e 438b b5bf 3081 5d7e 470c a2bf
000007e0: e7af 56e2 f0b4 cebf 94a9 bd75 d284 b2bf
000007f0: 190d 6803 92b8 c0bf 20a9 90c4 8ad8 cbbf
0.25295573870972216 -0.11321325081130038 0.23470907906537414 -0.15206519711171862 0.2680687600246647 -0.19656932347437558 -0.2917050700561901 -0.09887746135178149
0.2830763602874055 -0.12171621982320723 0.010461937469065184 -0.22099388176205056 -0.007399242263531322 -0.12145673562636124 -0.17128642979146874 -0.29321623885205045
-0.20208164553610997 0.06541536785757462 -0.056444873432092105 -0.24441802058310022 0.21143786305728268 0.016673786883589004 -0.11954283532770332 -0.28743928704615523
-0.024912934315881985 -0.2827277305591742 -0.2846195374897981 0.29360268352403945 -0.13201129497492753 0.08799627670578114 0.20279884822556266 0.19285315502525652
-0.26155410534675744 -0.11249668183964773 -0.13476385953179085 -0.02084317357977089 -0.07022254766580438 -0.15614363959094232 0.058046313340021305 -0.1848746308094106
0.07704325232864695 0.29373534439933097 -0.16024764901166275 0.05314364230302193 0.20651988959740014 0.07283219230366589 -0.10583547390644085 0.3074626356542636
0.12641297730607692 -0.11302275874139883 -0.04059946928435959 0.04984811411470241 0.28180923909089145 -0.2423658229975619 0.2159881413444888 -0.014564774562511429
-0.1578066396136855 0.000725955373383811 -0.002094819617031729 -0.030541769247232675 0.1945999533609752 -0.1740037088834122 0.16792013014833818 0.14614073378889075
0.10355929756247995 -0.028431005851811353 -0.21100228162714801 -0.013317604602160749 -0.17235870136251946 0.2617132879741311 0.14707218066459415 -0.046741741859718855
-0.14642496380775635 -0.22446060782058186 0.28216889761040537 0.2174306668267179 0.14256398589862584 -0.23768286967026486 -0.05806507815399886 0.21249725344432674
-0.2957600167575844 -0.19694366629499196 0.022544534758318302 0.30577510343587905 0.3042974179782307 0.059287779908992755 0.13818755080463563 -0.029415675172409016
-0.17999806087297957 -0.1577755413107926 -0.077952258845194 -0.2978189650083743 -0.2288756152020011 0.15787999868515573 -0.2430157094388396 -0.26475100623670267
0.06083507021221474 0.2457104199040025 0.2648076673605903 0.1869424025914484 0.2891071937580984 0.21575189874878858 0.2756632800766807 0.1403085711694852
-0.1454933912240401 0.17761131648032397 0.24321108146831288 0.17238851344138573 -0.10102926060074813 -0.06410496387754053 -0.27683102783869534 0.06891247614243784
0.030954948516004555 0.01943299235275836 0.08867961181812906 0.1308661932594523 0.24005301187363065 0.12904710655337487 0.23520879563434777 0.21660741439854608
0.1834073487811651 -0.0761041627246565 0.02875256622503236 0.07284764846752284 0.08926156894230514 -0.2059996376335837 0.3044022851832788 0.002416800419621039
0.19610313904454085 0.2286078869356179 -0.03916481952869588 0.018116858078387657 0.21159780908016118 0.0280431181461749 0.30144579888328443 -0.061546031594822886
-0.3067175694620812 -0.255866117394792 0.05191552624036516 0.28087040311919925 -0.18147048701765264 0.03523404398064428 -0.20710834852778578 -0.16705847844333793
-0.2611450523103891 -0.2118070191273405 0.14507068866381395 0.3100351071172152 -0.11773597953335876 -0.13303148098078618 0.04843321991236155 0.029001380000893473
-0.30703100172391745 0.09728079080063917 -0.3021389129596886 -0.2380155153534158 0.27347472689527136 0.03765057166194352 0.18843438065143342 0.17685162807395705
-0.056793515653075 -0.3011705911909764 0.09868330128303726 0.12768682690500266 -0.003456705313834574 -0.2459772796428969 -0.018343472646792085 -0.1318557330896155
0.05421564771280126 0.02923260795822828 -0.20549682881677783 -0.21582381835638223 -0.18677170785682068 -0.05564376704625985 0.1155316737885364 -0.29160508243374933
0.07028748323483403 -0.24150631602246514 0.28467113697131147 0.2406923685996754 0.06097996690061669 -0.08246252977901197 0.11875507640326949 -0.1749751804759648
-0.2762150950912384 -0.20814260992081357 0.07166842344492824 -0.04032097359154074 -0.22957512815159561 0.203761333132308 0.2690291641910662 0.028510390964444743
-0.023146740127217458 -0.3049658707937426 0.2824983428700682 -0.13736964255142065 0.23302420992130718 0.25308525675238264 0.0132178757603581 0.04239153540036733
-0.06977513043439212 0.14492848384986629 -0.07907202359243692 -0.2525525586617758 -0.25504959541753647 -0.12016413240973792 0.02782690596030518 0.05028953627330174
0.22565560638474097 -0.022093815610785116 -0.12969988548931186 -0.16428349596395267 -0.13393495381805742 0.21607685535990512 -0.27086421861387877 0.13095941869902394
0.1108862154729543 0.17350672196497435 0.026336134940652234 0.19502613379977868 -0.1769474174216662 0.0025572663549385277 0.24019884508098482 -0.211968348300768
0.01848479394345004 -0.20353187512836218 0.08330035011107068 -0.136086188574676 -0.29456486538799587 -0.22719374359971803 0.19678614370765252 0.3058092969886656
0.00040387554677562276 0.054202412062318905 0.18461514049077982 0.1472304378913396 -0.18737204310015804 0.1387890008949616 0.005066012292282873 -0.18282601619919855
-0.033417056474417006 -0.004582612957519161 0.13120113409308554 -0.08501480361675084 -0.11648352547319585 0.06613211230617572 0.07633383827794099 -0.16279568877000808
0.2265517316257028 0.17974724237405765 -0.08415623357642976 -0.03524993341011606 -0.23989687968912607 -0.0723392045453351 -0.13063264051752624 -0.2175458392897065

arr_2 f8 [10, 20]
00000000: 909d da78 c994 d1bf 90eb d2d1 e3b3 a63f
00000010: b008 130b 98d7 a03f 8651 f5da 66df d0bf
00000020: a88a 3244 9bf8 a8bf 95b1 7144 1121 d6bf
00000030: 8ec5 3291 4837 c8bf b658 b311 007c ccbf
00000040: e600 2498 bec4 c7bf e05a 723c 843d d0bf
00000050: 36d8 5838 1117 c93f 2b28 8c67 ac5e dcbf
00000060: 8f6f dfce 98fc dbbf 938a b6cf a212 d23f
00000070: e82f 3bbf 9a6f c9bf a894 56cf 2fab acbf
00000080: 4eea fd2b 8490 c33f d18a e8e4 61fd d53f
00000090: 6f57 b841 cdc9 cbbf 858c d413 93d2 d1bf
000000a0: a4a3 9006 bc21 b13f 2094 4dea 49ce c1bf
000000b0: 8384 42ab b7c8 cabf f0d8 d31a 8ba2 a9bf
000000c0: de42 32b4 b173 cd3f c8a0 521e 84e1 d1bf
000000d0: 9ce4 e9af 7b32 bd3f 0722 f025 0349 dcbf
000000e0: 6888 caaf 011d cfbf b599 3e10 dcda cdbf
000000f0: 74a0 1b23 ced2 b03f 1328 1423 db20 dbbf
00000100: 99fd fdff 7b96 d53f a4bc 127d 39f2 b6bf
00000110: aa4b c16b 3501 d9bf a48a 0081 3f55 d6bf
00000120: 2e86 847c 42c9 c23f bca5 410b 13d5 be3f
00000130: d314 0d5a 8464 d13f 596c 2654 4772 d5bf
00000140: 9999 32d7 276c d03f cdae 389b 89dd d5bf
00000150: ecba ae3a d471 b8bf a0d9 98a5 4dad bbbf
00000160: 679b e3ee 4769 d5bf 7e3c db3d 2870 c23f
00000170: 8025 83b7 6a99 a33f 54c4 18ad 5e68 b0bf
00000180: 5833 c74f 6344 d1bf 33f5 850a 9aa9 d03f
00000190: 1839 c0bf 19fe b6bf 9877 affd 4f6e 51bf
000001a0: 80b2 529f 47ea 72bf 6666 8064 9b9c c4bf
000001b0: 58d9 bc42 eb5b d9bf ac9d 9ecc 4700 b7bf
000001c0: a0cf dfef 82c4 a83f e926 3845 723e da3f
000001d0: 42c2 90af b8b6 c3bf 82f1 5a6e 8532 cd3f
000001e0: 8c9b 2193 2bda b23f 94b7 ba34 f9c6 d4bf
000001f0: d898 7b14 caa4 a53f d36e 3836 b329 d53f
00000200: 06d6 bcb0 d50e d2bf cb53 0aec 8e31 dcbf
00000210: 293e 821e 60b5 d4bf afff 5b30 c2d7 ccbf
00000220: dea8 c16e 5e14 c93f 0a0f 884f af13 c03f
00000230: be62 7d1c 0a47 d7bf 9491 fc17 30cb b23f
00000240: 32bc 5e23 a119 cf3f 4ce2 25e6 b11c c6bf
00000250: c078 a99e 2789 95bf 73a2 84e1 88e3 d43f
00000260: e425 4463 b4aa c3bf 29d7 73cc b7f4 d2bf
00000270: 5f13 a3f8 d876 da3f a853 24a8 2b5a a53f
00000280: 727b ff0a 696a cd3f 70ff a94f 1f8f babf
00000290: 92f4 5d01 354b d7bf 300d 9e2f 46eb 92bf
000002a0: 3050 40e8 48a5 a3bf 894e f0db 1074 5a3f
000002b0: 111c 9e28 ca9b d83f cdaf 4e31 cc28 db3f
000002c0: 2b00 375d 42ba db3f 0b94 9762 952c d8bf
000002d0: 1756 7c8b 8d86 d03f 9065 bb4c 1334 94bf
000002e0: 60c3 a210 f3a2 8fbf 98b4 6b7b 3ea5 b1bf
000002f0: 981f 4d20 306d d9bf 00a2 dda8 2894 b3bf
00000300: 45a9 b3c5 59f2 cdbf dd40 173c af7b d43f
00000310: cc23 6d94 e4f8 b33f 8c60 e0d0 e479 b6bf
00000320: 2d94 bca5 8c7e d93f 486a 5b9f cd07 a4bf
00000330: 1efd ff40 5711 c03f c59b 559d 4b93 d73f
00000340: a9fb 3e7e ecbf d8bf 497a 9028 e960 d13f
00000350: 59c2 03dc c72d d83f a731 815e 5d38 d2bf
00000360: a01f aecb 6ae5 c5bf c245 7b66 1105 d5bf
00000370: b6c3 5f6e c04b d5bf 11bd ef7b 689f d1bf
00000380: d8c7 8499 d107 a6bf b27a 2932 f3c1 cc3f
00000390: 34bf d6f8 ae9b ba3f 64fe 53ae ddf5 d3bf
000003a0: 9ba6 1d8a 6f79 d23f 5ead 6e31 5805 c93f
000003b0: edd3 0695 f7d6 cbbf b9d2 0f2d 48ed d33f
000003c0: 305a a36d 23ef a4bf b2ca cb4b 5b64 c93f
000003d0: 7c29 7ff3 e2ac c7bf 1aa5 4f68 b51e c33f
000003e0: 8d44 618b 57f6 d43f 175f fff6 b897 d13f
000003f0: ed3f 817d 7405 d13f 2b2a b864 6191 d33f
00000400: afea a60d d74b d03f 11b7 7933 aa48 db3f
00000410: 6f76 bf36 9211 d53f e4f2 c0ba d212 bf3f
00000420: fcbb ec9a f769 b03f 1869 7c09 7a59 b4bf
00000430: 6b2c f60c 6cdd d9bf 4d74 1e9b dc92 d23f
00000440: c2f8 7ca7 edb2 c4bf 5f30 c242 4b7b dcbf
00000450: 10d8 dfc1 32e0 9e3f 04ab 7b73 22f2 bb3f
00000460: 6518 a073 013d da3f 1b16 abff 1553 d43f
00000470: 548a 7dbf 18f8 d5bf 80a0 78ec 3cee 92bf
00000480: bef8 a047 0e4a c63f 9ffb 8792 4445 d5bf
00000490: 1814 b2b4 4c5d d4bf 2045 60f3 11bf a33f
000004a0: 6a29 0cf6 20a1 cb3f add4 031c 9e0e d93f
000004b0: 6aca 1679 e6ab c7bf 5a87 4ac4 8259 d3bf
000004c0: 9c80 c9d6 09d0 b53f 403c 497c c4dd b1bf
000004d0: a8a7 2cb5 6425 dbbf 879e 586c 49de c9bf
000004e0: 66f5 8857 9b2a c03f 5f7a a041 4709 d3bf
000004f0: 1d36 16e2 7bdb d43f ae64 90b8 05e0 cf3f
00000500: 1bff 9563 d1f0 d6bf 68c0 0434 f697 aabf
00000510: 6baf b8c6 1beb d03f a33f ec1b 75fe d03f
00000520: 2322 1928 9b8d da3f aadb a28e fb15 c6bf
00000530: 65fe 0a65 f60a d13f de81 a00e de89 c3bf
00000540: 0283 00be 29b5 c1bf 50af a8e2 e187 d3bf
00000550: 8dc7 8578 abea c9bf 247e 0fb5 cc96 b23f
00000560: b088 3d04 4291 9c3f 7761 d290 58e3 d03f
00000570: 61ec 0f1b 030b d43f fe5b 6495 54ab d3bf
00000580: 6aa2 3224 c6f0 c5bf 4799 9396 76f9 d63f
00000590: a26d d4a1 2aa9 ce3f 79c9 8304 6579 d33f
000005a0: 7b15 8303 0587 d43f 2ad3 35d7 f8dd d1bf
000005b0: 497d e47c 5aef d83f 801d ab15 54cb b5bf
000005c0: 5ac7 b8ab 1a89 c9bf b644 801f 336a c4bf
000005d0: b2eb 3526 e9dd c53f ee2c 0237 e0bd c43f
000005e0: ced8 8f98 cd06 cd3f 30f4 bfeb d398 d2bf
000005f0: 801f cce5 c398 a7bf 3044 f3fc c3dc a53f
00000600: 44c8 a66c c6ed c7bf e08c cfaa 1bea 99bf
00000610: 82e3 6a47 9b34 c33f b8d8 1151 88b1 afbf
00000620: b684 d9d4 2313 c23f 4857 c208 27e6 c3bf
00000630: 310b 5f2b cc98 7b3f 24f3 ae28 7f3d d8bf
-0.27470623781342685 0.044341201174993405 0.03289485106644585 -0.26363536245960295 -0.04877171714294565 -0.345768277015645 -0.1891871174789625 -0.22253418792997132
-0.18569166592352032 -0.2537546720790669 0.1960164570934368 -0.4432784091192185 -0.4372922916643284 0.2823874500701688 -0.19871839845143247 -0.05599355131133993
0.1528477873615252 0.34359023432095365 -0.2170960017107819 -0.27847744881200526 0.06692099724081274 -0.1391079324777431 -0.20925041067406278 -0.05006823256000981
0.2300932054390818 -0.27938940964896775 0.11405156178251946 -0.44195631699452104 -0.2430727108340449 -0.23324156563940127 0.06571663243414766 -0.4238803713384424
0.3373098373339985 -0.08963355353874874 -0.390698771695663 -0.3489531287943157 0.14676695899929498 0.12043875717940628 0.2717600707440628 -0.3351000139024954
0.2566012956180202 -0.34164657743779686 -0.09548689301184837 -0.10811314862153276 -0.33455084160816856 0.14404776592570906 0.038279852773096756 -0.06409255720133561
-0.26979906836350187 0.26035166766799306 -0.08981476718347314 -0.001063898197336743 -0.00461795785410557 -0.16102926642706733 -0.39623528973915745 -0.08984802957149068
0.04837426355507479 0.410061423871055 -0.15401371548206738 0.22810428512992692 0.0736415132720209 -0.32464437627174303 0.04227286815675918 0.33067016882862993
-0.28215543994460324 -0.4405247979241806 -0.3235702798783416 -0.22533442841813442 0.1959341088107242 0.1256007326447775 -0.36371090681272367 0.07341290078745139
0.24296964861920994 -0.1727506994027571 -0.021031016406021008 0.32638761542560885 -0.1536469921777971 -0.296186399136206 0.41350387841185027 0.041703571581968746
0.22980988537798513 -0.10374637312815849 -0.36396527417657254 -0.01847562471040226 -0.0383703979024691 0.0016145863189692986 0.384508647599831 0.4243650895612035
0.43324336150181136 -0.37772116306433706 0.258212457863324 -0.019729901846266495 -0.015447520203765996 -0.06892767441941527 -0.3972893062059426 -0.07647947428416302
-0.23395845559509545 0.3200491034340425 0.07801655410470615 -0.08779745196841499 0.39834896264284475 -0.0391220337894152 0.1255292003042791 0.36836519589126865
-0.38671409920419336 0.2715399643074404 0.3777942322331334 -0.2846902296921833 -0.17106375642128757 -0.32843432434046005 -0.3327485158798099 -0.27535450080081697
-0.04302840231902366 0.22466888379400057 0.1039380414501892 -0.3118814661429268 0.28866184699891456 0.19547560132682923 -0.2174977758092206 0.3113575401360254
-0.04088698113780642 0.19837514115314075 -0.1849635781239377 0.14937465279880585 0.3275355206615778 0.27488540764669395 0.2659579492219553 0.30574831806066766
0.25462890942768984 0.42631011034869554 0.32919745775675485 0.12138096866051346 0.06411693127004975 -0.0794903062018516 -0.40413953080923787 0.2902137293656935
-0.16171045950063073 -0.4450252677859278 0.03015212353053448 0.1091634303990468 0.40997349063434846 0.3175711628685762 -0.3432676191352233 -0.01848693078332575
0.17413500306606083 -0.3323527747124277 -0.3181945576291709 0.03856712432765108 0.21585475935018944 0.3915171884139664 -0.18493348038244345 -0.3023383061318917
0.08520566457582607 -0.06979015383079545 -0.42415731137099977 -0.2020961550745037 0.1263002564827886 -0.29744130524514917 0.3258962352636859 0.24902411949077446
-0.3584483597296512 -0.05194062600128363 0.26434988409413646 0.26553085066643173 0.4148929492553483 -0.17254585709244213 0.266294096636534 -0.15264487947662436
-0.13834115769807204 -0.3051686013666215 -0.20247405419246114 0.07261351986334624 0.02789786482697626 0.2638760961795223 0.31317212717812565 -0.3073321780115633
-0.1714103390452409 0.35897602753393126 0.23953755285115813 0.3042843383874679 0.3207409414574937 -0.27917309776903443 0.38960897633110797 -0.08513379601492055
-0.19949658760884398 -0.15949095762383586 0.1708346783233004 0.1620445507618124 0.22677011441527956 -0.29057786962931953 -0.046087381173548714 0.04269993269702643
-0.1869438200497503 -0.025307113934002312 0.1500429247587612 -0.06190134038563272 0.14120910542536586 -0.1554611962098369 0.006737515961449601 -0.37875346158016243

arr_3 f8 [1, 10]
00000000: 5368 d8b6 1caf e2bf 3e56 e594 9096 d2bf
00000010: 94fd 9e30 f596 d53f b019 7879 8e3e d53f
00000020: 1448 881f ad36 db3f 3f92 181d bb55 a13f
00000030: c874 7279 9b9b c3bf 380c f492 09f3 b03f
00000040: 40f6 68aa ec8e cb3f 8266 1097 f770 e63f
-0.5838759967039188 -0.2904397443829544 0.3373387312712677 0.33194314825268645 0.4252121742184738 0.033857199956660804 -0.1531862586024657 0.06620845639922457
0.21529920883942744 0.7012899351568225
